model/model_itr2.pth (torch_old, 133417 bytes, 8 tensors)

conv1.weight f4 [10, 3, 5, 5]
00000000: d9f2 7a3e 4ace b83d 067b a63b ac9f 0e3e
00000010: 6cf6 c13d 5b84 473e 6c1e 2d3c 41ea 883e
00000020: 7c16 483e 4f97 21be 901d b23d 03ab 8b3d
00000030: a975 883e 71c3 0cbe 8803 19bf c753 47bd
00000040: ba42 0f3e 9b63 f63d 012d abbe 4d95 f2be
00000050: cae1 063e c485 7bbe f1b0 56bd 0a93 c3be
00000060: cf3d 163d 4d18 873c 127a 393e 5dba a73d
00000070: 734f df3c fa42 a0bc df2e 743e cb37 683e
00000080: 2063 be3e b7c4 a23d f285 dfbe e122 083e
00000090: d05d 823e 34ef 893e fafb c73c 17e4 bbbe
000000a0: ecc6 3e3d 8b43 6a3d 6284 863e 2a7d 08be
000000b0: d455 aabe 862b 943d 5f5f 19be 1e16 fdbd
000000c0: 9300 08bf d29b 49be 8930 eebb 7dc7 403d
000000d0: 9852 bb3d 1aa1 143e cabb 13bc 9317 193e
000000e0: 9598 fbbc 18a1 573e 10b7 673e 230e 89be
000000f0: bc81 f03d 149c b73d 4fd9 713e 7961 b8bc
00000100: 03b2 99be 14e6 82bd 53c6 693d 1f92 143e
00000110: b748 a0be f1d1 ecbd f6da 233e d10b 06be
00000120: b1ce 2cbe 9529 a9be 8c88 e13d fa3b 79be
00000130: 4824 c1be 07d8 51be d826 07be a472 a73c
00000140: 3e54 a4be 1eed f2bd 3646 7b3c 07df fc3d
00000150: b7dd 293d b9f1 8bbe aded 233c 5e93 b53e
00000160: 6d04 7a3e 0486 273d 6ca3 17be 9ada 7bbc
00000170: f9a5 7f3e daea 7abc cd3d a9be b227 3e3e
00000180: 3048 913e 30d2 073e 47a6 cfbe b111 3ebe
00000190: cad6 78be a183 b1bd b300 1c3e 6b06 463e
000001a0: 4ede d83d 3de6 d0be 2a5c 173e bec1 e83d
000001b0: 04a9 833e 14f3 8ebc aaa8 b1be 0381 1d3e
000001c0: 8671 bb3e 71ef f73d 96cc 7ebd a9d6 7fbe
000001d0: aad0 593e 8e1c 8c3e a948 0d3c 5691 d0bd
000001e0: 939b 04be 2cc1 8e3e e87f 783e 9c23 00be
000001f0: bf8c 3fbe 1d1c 75be e782 66be 5343 91bc
00000200: e14e f73d d81e 0c3e 5d17 02be e5f7 fabc
00000210: df48 0d3e 5be2 6d3e c6c3 8bbd b366 20be
00000220: 6a53 e23d 27e5 983e a4a7 083e 5d2c fbbd
00000230: ce02 3abe 4e06 f63d 3bcf a83d 0d6f bcbd
00000240: fac4 8ebc 3261 e5bc e2f4 683e 6592 fcbd
00000250: 31b2 33be fd89 40bd 0c28 3a3c c9fc 68be
00000260: ca71 b9bc 392a 803d 40fb f3bd 5e10 453e
00000270: 07b1 53bf d4d2 c93d be21 f73e 91fb f33d
00000280: d3e8 033f 8af5 c0be fa45 23bf 0a3b a53e
00000290: 3b63 283e 0234 9e3e f0e7 353e 47bd 39bf
000002a0: 2d0a 7dbe 367f 4e3e a0cd 283c 117d dc3e
000002b0: e244 eabd fe45 a7bd 162c d23d 5eda c9bd
000002c0: 88f4 8abe dfbc 0dbe 2b06 9a3e 7f41 1d3c
000002d0: 4db1 cf3d 3364 2fbf e057 8ebe c149 dc3e
000002e0: a6f5 a83e 6f03 123f bfa0 dabe 32cf 62bf
000002f0: 2862 843e 82b1 793e 2b3a 043f 74e4 603e
00000300: 6703 36bf 2152 cdbd be1a 823e 612f 8e3e
00000310: 9e22 b63e 370a 5abe 2d80 93bc b83f 2cbe
00000320: 8cc7 9abd 6464 00be 9cc8 7b3d da9f 303e
00000330: 14a8 23be 140f 163e 89b7 0cbf 09ae 1a3d
00000340: bf3c 983e 5d6d 55bd 1b5f bb3e 166e 52be
00000350: 5c56 19bf 8938 c83e 602a 3b3c adba b93e
00000360: c01f b03e d11a 07bf 25cd 2b3d b0a4 c63d
00000370: fdd8 7b3c 1c6c 993e d1e4 10be ed71 a3be
00000380: 7f2e a63d db98 293e 6328 81bc d970 9c3d
00000390: 0010 d53d 3e6a 483e b0f0 113e cfad e9bd
000003a0: 4776 86bd 6100 463d 9d2f 5c3e 486e 193e
000003b0: 4787 9c3e 233f f53e 97b2 f13e f814 373e
000003c0: 28a0 abbe 8e86 86bc 55f2 573e 7be5 133e
000003d0: fb6f fbbd ac53 1bbe 6819 00bf d8d0 3cbf
000003e0: cca8 2bbf 12b9 d3be ce9f 30be 6b58 b7bd
000003f0: df88 dbbc d9ad e73c fa84 373d c027 37bc
0.24506702 0.090237215 0.0050805835 0.13928097 0.09470829 0.19484083 0.010566335 0.26741222
0.19539827 -0.15780376 0.08697045 0.06819727 0.26652268 -0.1374643 -0.59771013 -0.04866388
0.13990298 0.12030717 -0.33432773 -0.47379532 0.13172069 -0.24562746 -0.05241484 -0.3819812
0.03668004 0.01649108 0.18112972 0.08189843 0.027259564 -0.019563187 0.23846005 0.22677533
0.37185 0.07947677 -0.4365688 0.13294555 0.25462198 0.2694031 0.024412144 -0.36697456
0.046576425 0.05719332 0.26272875 -0.13328996 -0.33268607 0.07234864 -0.14977787 -0.12357734
-0.53125876 -0.19688347 -0.0072689694 0.047065247 0.09146613 0.1451458 -0.00901694 0.14950399
-0.030712405 0.21057546 0.22628427 -0.26768598 0.11743495 0.089653164 0.23618053 -0.022507416
-0.30018625 -0.0639154 0.057073902 0.14508866 -0.31305477 -0.11563481 0.16001496 -0.13090445
-0.16875722 -0.33039537 0.110123724 -0.24339285 -0.37722993 -0.20492564 -0.13198411 0.020440407
-0.32095522 -0.11861633 0.015336564 0.123472266 0.04147121 -0.27332857 0.010005397 0.35463995
0.24415751 0.04089929 -0.14808434 -0.015371943 0.24965657 -0.015314782 -0.33054963 0.1856983
0.28375387 0.13263774 -0.40556547 -0.18561436 -0.24300686 -0.08667684 0.15234642 0.19338386
0.10589276 -0.40800658 0.14781252 0.113650784 0.25714886 -0.017449893 -0.34698993 0.15381245
0.3661005 0.12106217 -0.062206827 -0.2498423 0.21271005 0.27365535 0.008623281 -0.10183971
-0.12949972 0.27881753 0.24267542 -0.12513584 -0.18706034 -0.23936506 -0.22510873 -0.017732298
0.12075592 0.13683641 -0.12704225 -0.030635783 0.1379733 0.23230879 -0.0682445 -0.15664177
0.11051066 0.2986233 0.133452 -0.12264321 -0.18165132 0.12012921 0.08242651 -0.09200869
-0.01742791 -0.028000448 0.22749665 -0.1233261 -0.17548443 -0.047006596 0.011362087 -0.2275268
-0.022637267 0.06258053 -0.119131565 0.19244525 -0.82692 0.098546654 0.4826793 0.11913217
0.51527137 -0.3768733 -0.6377865 0.32271606 0.16444103 0.30899054 0.17764258 -0.7255444
-0.24710913 0.20165715 0.010302931 0.43064168 -0.114389196 -0.08167647 0.10262315 -0.09856103
-0.27139688 -0.1384158 0.3008283 0.009598135 0.10141239 -0.68512267 -0.27801418 0.4302502
0.32999915 0.5703649 -0.42700765 -0.88597405 0.25856137 0.2438412 0.5165126 0.21962148
-0.7109894 -0.100254305 0.25411028 0.27770522 0.35573286 -0.21292959 -0.018005455 -0.16821182
-0.07557592 -0.12538296 0.061470613 0.17248479 -0.15982085 0.1465419 -0.5496755 0.03776363
0.29733846 -0.05210625 0.36595997 -0.20549807 -0.598974 0.39105633 0.011423677 0.36275235
0.34399223 -0.52775294 0.041943688 0.096993804 0.015371558 0.29965293 -0.14149787 -0.31922856
0.08114337 0.16562216 -0.015766328 0.076387115 0.104034424 0.19571778 0.14251971 -0.114101045
-0.06565528 0.048340205 0.21502538 0.14983475 0.30571958 0.47899732 0.47206566 0.17879093
-0.33520627 -0.016421583 0.21088536 0.14443009 -0.12277218 -0.15168637 -0.50038767 -0.7375617
-0.6705444 -0.41352135 -0.1724846 -0.08952411 -0.026798664 0.02828114 0.04480455 -0.011178911

conv1.bias f4 [10]
00000000: 77c1 b93d 8d1a 723f 842e f8bd a966 a53c
00000010: 6e04 2d3e 2e55 ca3d 129c 48bf cf4f a53e
00000020: 083a 6f3e 8dc2 b03d
0.090701036 0.94571763 -0.12118247 0.020190554 0.16896221 0.09879528 -0.78363144 0.32287452
0.23361981 0.086308576

conv2.weight f4 [20, 10, 5, 5]
00000000: 108a b2bc 7be8 9fbd 35ae 343d 3859 54be
00000010: 2fcd f0bd 63ab b23d 6ef6 f43d 1f9d a8bd
00000020: 7524 e3bd 55dd 083e bf95 483e a525 ec3d
00000030: 9f46 e23d b42a ff3d b3c1 f13a 5fcc babd
00000040: ef43 9f3e 4a15 293d 7578 3dbe 78c8 5cbd
00000050: c777 66be d8a1 91be a43c ac3d 6db6 343e
00000060: 46b2 673d 76c4 603b ef98 5c3e ca03 683d
00000070: 0f86 c6bc 1c63 3bbd f462 2bbd 5aab f73d
00000080: ffdf 433e 0309 e5bd 249a 77bd a68e 433e
00000090: c26d abbc 2421 f43e 88dc 213e 2af0 debe
000000a0: 4b0d 143e bfd4 3a3e 0302 403e 1e77 b9bd
000000b0: a349 2dbc 8acf d0bc 9979 30bd 1d2f 76be
000000c0: 46ed 33be deea 1f3e 14e8 1dbd 2313 f6bd
000000d0: 768d efbc 3b80 97bd 1831 cd3d 2f8e 66bd
000000e0: 7706 06be b4b2 05bd 0d75 3a3c a296 473e
000000f0: 21b2 443c 277a 143e e0af 87bd 8411 3c3e
00000100: 4577 fb3c 4025 aa3d 820a 233e 76b6 b8be
00000110: 7db4 b43d d028 b23d f360 9ebd 45fe 273d
00000120: ea22 6bbe e64e a0bd 2982 aebc ee35 173d
00000130: 9b9b d9bc 6736 ac3d c163 843d 7d2b babd
00000140: e0e1 7d3d 9014 3ebd 26df 4f3d 4dfc 69be
00000150: 634b 353e 9b0d 1bbe 3227 16bf d3e1 44be
00000160: edee 41be a8e2 4fbe 4668 35be 2dab 573e
00000170: e0fb a2bd 591d 1dbe 9742 85bd 5d25 c7bc
00000180: 6914 123e 6bb4 0b3e 79ef ecbd d80b c6bd
00000190: baf1 583e faf3 1d3e ceb1 ed3c bb93 4f3e
000001a0: 9368 51bd 48a2 ba3c 9709 aabc b3d4 1fbe
000001b0: 12c5 b33b 9235 fcbd 1ffb 61be d67c c3be
000001c0: cc47 13bf bf37 f4bc d2bf 263e 4f87 11bd
000001d0: 2802 6ebe 6b67 49be 6ad0 a3be 4a39 b8bd
000001e0: fe82 093d 1724 003d 5c6a 7a3d 2738 823e
000001f0: 06ca 183d 0037 023e 99cf f73c c35e 213e
00000200: 7f3e 52bb 81a9 86bd 513a 82bd 484b 513c
00000210: 0901 473e c535 5fbc c780 76be b904 85bd
00000220: 7ef5 e7bd d503 173d 6389 84be d9e4 5dbe
00000230: 1392 1fbe dab8 5bbe 504f f9be da53 46be
00000240: ace2 c2bd 0cf5 1fbe 270a 903e 9fc5 16bd
00000250: a5c6 45be ccc1 ff3d 5038 683e 1cb7 7f3e
00000260: 57a7 863e 43b9 35bd 8ca0 8bbd f91f 213e
00000270: bfb6 463e 4548 aebd bb7e 99be b4de 85bd
00000280: 1621 39be 46bc c83d f54f a0be 6596 86be
00000290: 11cf 803e b0c1 6ebd 93f2 2d3d 5922 bdbe
000002a0: 035d d7bd f9e7 3f3e 8aa1 c63c 8de8 a2bc
000002b0: a3c5 c7bc 93b5 9e3c 4486 a13d e37f 4d3e
000002c0: 8b97 653e 62e4 ce3c 83df 16bd c80c f3bd
000002d0: a74b e93d 710c 0c3e e1a4 6abe 18ef efbd
000002e0: 3724 77bb e5e4 89bd 3c74 313d 6f8e 2fbd
000002f0: 2079 8ebc f86d 413e ac6d 72bc e2c0 eabd
00000300: 15a7 5abe e9ef 583e 88ec 223e 3901 ce3d
00000310: b443 9dbd a7cd 60be 516e de3d 9fb0 78bc
00000320: a00e 433e a11b 333e 50ba f4bd c851 0b3d
00000330: 41ca 623d 2bc9 b0ba 2dfb 1f3d f469 40be
00000340: 28dd d0bd b5e1 d1bd 91a5 17be 1f2b 59bd
00000350: 3da6 46be bc51 383d 842c 843e 1fc5 40be
00000360: b906 8aba 9db2 0a3e 0f46 1dbe 4dff f33d
00000370: bb04 ab3c 264d e2bd 64d1 173c 0bba 683e
00000380: e0eb 983d 0ab3 123d e7c8 82bd b0d4 a2ba
00000390: e326 843d 6c44 c63c 9266 a03d 8c3c 4d3d
000003a0: 7853 4a3c 7954 2d3d 927b 3ebd 3342 c33c
000003b0: 6e6f c2be f50f e7be 3aa3 453e 0a51 963e
000003c0: a3e3 b43d 8ab7 00be d138 b8bb 12f7 893e
000003d0: 717c 29be db26 b93c 471e e13d 56c0 ebbc
000003e0: 1f05 453d a854 5f3d 5b90 193d 1d5b 9bbc
000003f0: 643d fabd be6f a53d 21f1 55be c64d 21ba
-0.021794349 -0.07808014 0.04411145 -0.20737159 -0.11757886 0.08724096 0.11961065 -0.082330935
-0.11090938 0.13365681 0.19588374 0.115306176 0.11048626 0.12459317 0.0018444568 -0.09121012
0.31106517 0.04128007 -0.18502982 -0.05390212 -0.22506629 -0.2844379 0.08410004 0.17647715
0.0565665 0.0034296787 0.21542715 0.05664424 -0.024233846 -0.045748815 -0.041842416 0.120932296
0.19128416 -0.111833595 -0.060449734 0.19097385 -0.02092636 0.47681534 0.15806782 -0.43542606
0.14458196 0.18245219 0.18750767 -0.09055923 -0.010576638 -0.025489587 -0.043084715 -0.2404141
-0.17570981 0.15616938 -0.038551405 -0.12015369 -0.029242259 -0.07397505 0.100191295 -0.05628794
-0.13088404 -0.032641128 0.011380446 0.19491056 0.01200536 0.14499722 -0.06625342 0.18366057
0.03069652 0.08307886 0.15921977 -0.36076707 0.08823488 0.086991906 -0.07733335 0.041013975
-0.22962537 -0.07827549 -0.0213023 0.036916666 -0.026563456 0.08408814 0.06464339 -0.09090326
0.06198299 -0.04640633 0.05074992 -0.22850151 0.17704539 -0.15141909 -0.5865356 -0.1922677
-0.18938799 -0.20301306 -0.17715558 0.21061392 -0.079581976 -0.15343226 -0.06506842 -0.024309808
0.14265598 0.13643043 -0.11569113 -0.09670228 0.21185961 0.15425101 0.029015448 0.20271198
-0.05112512 0.02278246 -0.020756526 -0.15608482 0.005486139 -0.12314905 -0.22068451 -0.3818118
-0.5753143 -0.029811738 0.16284111 -0.03552943 -0.2324301 -0.19668357 -0.31994945 -0.08995302
0.03357219 0.031284418 0.06113659 0.25433466 0.03730204 0.12716293 0.030250357 0.15758805
-0.0032080708 -0.06575299 -0.06358779 0.012774296 0.19433989 -0.0136236595 -0.24072562 -0.064950414
-0.11326121 0.03686889 -0.25886068 -0.2166933 -0.15583067 -0.21457234 -0.48693323 -0.19367924
-0.095158905 -0.15620822 0.28132746 -0.03680956 -0.19314058 0.12488136 0.22677732 0.24972194
0.26299545 -0.044366132 -0.06817731 0.15734853 0.1940565 -0.08509878 -0.299795 -0.06536618
-0.18079028 0.09801535 -0.31311002 -0.26286617 0.2515798 -0.058290184 0.042467665 -0.36940268
-0.105157875 0.18740834 0.02424695 -0.01988628 -0.024386233 0.01937369 0.07886937 0.20068316
0.2242109 0.025255386 -0.03683425 -0.11867672 0.11391383 0.13676621 -0.22914459 -0.117155254
-0.0037710795 -0.06733111 0.04332374 -0.042860445 -0.017391741 0.18889606 -0.014796656 -0.11462571
-0.21352799 0.21185268 0.15910542 0.10058827 -0.07678929 -0.2195345 0.10860885 -0.0151788285
0.19048548 0.17491008 -0.11949599 0.03401354 0.055368666 -0.0013487687 0.0390579 -0.18790418
-0.10198432 -0.10248128 -0.14809252 -0.05301964 -0.19399352 0.044999823 0.25815213 -0.18825196
-0.0010530568 0.13544698 -0.15358756 0.11913929 0.02087628 -0.11049871 0.009266231 0.2272722
0.074668646 0.035815276 -0.06385975 -0.0012423005 0.064527296 0.024202548 0.07832064 0.05010657
0.012349002 0.042316888 -0.046504565 0.023835277 -0.3797564 -0.45129362 0.19300547 0.29358703
0.08832481 -0.12570015 -0.0056220074 0.26946312 -0.16551377 0.022601536 0.10992103 -0.028778236
0.048100587 0.054524094 0.037491184 -0.018964345 -0.122187406 0.08077954 -0.20892765 -0.0006153252

conv2.bias f4 [20]
00000000: 99e2 1c3f 2fb5 2a3f 396b a13e d566 083f
00000010: f950 043f 6245 a8bd afc6 ca3e b207 053f
00000020: c9fd 233f c6e1 0e3f 3e43 3a3f fbc3 913e
00000030: 6ad5 b93e 30a9 7a3e a820 0f3f e66d 9f3d
00000040: d1c8 c83e 61be b63e d384 d83d 3491 cc3e
0.6128326 0.66682714 0.31527117 0.5328191 0.51686054 -0.08216359 0.3960471 0.5196487
0.6405912 0.5581325 0.72758853 0.28469834 0.36295635 0.24478602 0.55909204 0.07784633
0.3921571 0.35692123 0.10572209 0.3995453

fc1.weight f4 [50, 500]
00000000: a0a5 e23c 3cb7 1fbd 982b b0bc 4c1c 773d
00000010: 12da af3c d3b0 333d ee6c 31be 6efc b4bd
00000020: 4fab 0e3d 5ef5 833d f620 50bc f550 aa3d
00000030: bd0e a7bc 57a4 85bd be57 f6bc 2bb5 f33d
00000040: bf62 eabc 49f8 1c3d 7677 5f3d 18b1 b13d
00000050: f50d ebbd 3d40 803d 85d4 66bd 2145 5a3d
00000060: e253 cc3a d510 04bd d1a1 8ebd 2757 98bc
00000070: ce23 1fbd 100d 8dbc b445 433e 247c 4ebc
00000080: 5203 d93d ac89 c63c bff2 13bd d47d e2bd
00000090: 3d52 55bc ce08 4d3e 1fc4 103e 2761 053d
000000a0: 0639 1dbe 4dc5 ebbd 7587 493d 6b1f 14bd
000000b0: 4f0c d4bc 1bbb d23b 8761 63bc 0883 20bd
000000c0: 18f9 6e3c 1aac 97bc 4f8b 18bd feb5 f8ba
000000d0: bd92 20be e684 163d d02f cabc 1944 8dbd
000000e0: c448 973d 1fd1 f2bd c2ff 05be 459b 74bd
000000f0: 47ce 863d d32f 113e 7779 533e 4056 1fbc
00000100: bc89 fe3d ff61 b13c 2afc d2bd aeca 8a3d
00000110: 95f5 1a3d cfd2 a73d 19f0 babd 7d6f f9bc
00000120: 16f8 5e3d fbc9 d83c 3b78 a6bd c3c6 01bd
00000130: f94c f03d 0322 683c 9b31 a0bc d08b aebd
00000140: 0eb1 bebc f96f 13bd 5512 7bbd c787 dabd
00000150: 61ec a43b 6306 953d 197e 003e 6ced 17be
00000160: afdc 8dbd 4e86 ff3d fe3c b5bc 4a93 913d
00000170: 51fa 5bbe 10ef 7fbd 517d 753d d856 8a3d
00000180: e5b5 f13d bb24 14bd 3fd7 8d3d 707b 023d
00000190: ede6 22ba 0923 6cbd 90d8 113d 4878 96bd
000001a0: 18a1 c63d 4834 3e3c ffba a1bc 192f 8cbd
000001b0: 6711 383c 3d23 0d3e 4f14 a03d 90f2 80bd
000001c0: d758 47be f422 c8bd 1798 873c fc3a efbb
000001d0: 8adb 8dbc 1dc9 203c c67b 08bd b6f0 c1bd
000001e0: ba0d c63d 5c96 723d 42d7 323e 0989 94bc
000001f0: b44f 9cba d518 b1bd a97f fabc 3c23 453d
00000200: c31d 763d 8cb2 b1bd e21d 78be b79f 683d
00000210: f466 153e 009c 753e 92d1 04be ab53 7bbe
00000220: 29d2 f3be 583c 31be fad4 ddbd e417 36be
00000230: d049 b73d 8b21 033e e5c8 0cbd 20e4 923d
00000240: fea5 0abc 2bb3 1abb 87cc 46bd 5305 983d
00000250: fcbd 383b b606 ed3c 95af 3b3d 83d8 3a3d
00000260: 5926 51bd 40af 93bd 51d9 063c 0746 e63b
00000270: ead7 e5bd 966d a5be 0e33 53bd 57f9 bb3c
00000280: 8f5c c33c 7110 133c e30d f7bd 3345 b93d
00000290: fd77 1e3e 699e 883d e972 64bd 067a cbbd
000002a0: 5fad 843d fdcd bf3d 7508 583d 63e0 f13c
000002b0: 1e96 03bd b383 d73d aa34 4ebd 30a1 d2bd
000002c0: cac7 d13b 4eed 18bc d5f8 8fbd 78d5 ecbc
000002d0: b3ab b63d 8235 debd 15eb e23d f5e1 a13d
000002e0: 214b 0abd e7a8 963d a3ec 4d3e 7a2e 393d
000002f0: 8830 0dbd 9d98 d83c 0e13 b0bd bc55 1cbe
00000300: cd36 93bd 0f85 34bb 8ca0 d1ba 66fa b4bd
00000310: 6cf3 a4bc 7190 d73b 6dae 273e d277 463d
00000320: f241 92bd 04b4 d43d ddfd ab3c 26d5 c23d
00000330: bff2 d63c 13fb 67bb f14c f2bd a808 50bd
00000340: 4f97 403e 62aa c33c ba36 aa3c 5d17 94be
00000350: 3b44 c63d a8c5 99bd 9943 37be fb5e c5bd
00000360: 5ec2 0f3e b32d d03d 5318 8abc 2396 8e3c
00000370: 2014 843d ce2b 073b 5f0c c53b a3dd 1a3d
00000380: 6c5e cc3c bba8 583d 5ca6 05b9 d425 113d
00000390: 8ed2 69bd b1cd a83c 0bf0 bd3b 9b14 503c
000003a0: 9673 b73d 8dc7 923d d439 983d 4d46 be3d
000003b0: b4a8 21bd c008 afbe 89b2 57be ca55 babd
000003c0: eb1e 2c3b e27a 3abd 4be6 a63d 0cd4 ab3d
000003d0: aef0 9abd 05b9 1b3c 9878 d73d 27a2 1a3d
000003e0: ff1d 603d 55a0 163e 27f7 493d b088 b2bd
000003f0: 3cf8 553c 0a82 203d b1ab bebd f5c1 25bc
0.027666867 -0.038993105 -0.021505162 0.06032972 0.021466289 0.043869805 -0.1732671 -0.0883721
0.03483134 0.064432845 -0.012703171 0.083162226 -0.02039277 -0.06525486 -0.030071136 0.118997894
-0.028611539 0.03832272 0.054557286 0.08676356 -0.114772715 0.062622525 -0.05635502 0.053288583
0.0015588964 -0.032242615 -0.06964458 -0.018596245 -0.038852505 -0.017218143 0.19069558 -0.01260284
0.105963364 0.024235569 -0.036120173 -0.11059156 -0.013020095 0.2002289 0.14137314 0.032563355
-0.15353784 -0.115122415 0.049201448 -0.036162775 -0.025884775 0.006430996 -0.013878233 -0.03918746
0.014585756 -0.018514682 -0.03724223 -0.0018975136 -0.15680976 0.036747836 -0.024681002 -0.06897754
0.07386926 -0.11856293 -0.13085845 -0.05971839 0.06582313 0.141784 0.20651804 -0.009725153
0.124286145 0.021653173 -0.10302003 0.06776939 0.03783186 0.081945054 -0.09127826 -0.03044867
0.054435812 0.0264635 -0.08128401 -0.031683695 0.11733431 0.014168265 -0.019554904 -0.08522761
-0.023277786 -0.035995457 -0.06129678 -0.10670429 0.0050330614 0.07276609 0.12548102 -0.14836663
-0.06926858 0.124767885 -0.02212381 0.07108171 -0.21482207 -0.062483847 0.059933964 0.067548454
0.11802272 -0.03616784 0.069258206 0.031856 -0.000621422 -0.0576506 0.03560692 -0.073471606
0.09698695 0.0116091445 -0.019742487 -0.06844921 0.011234618 0.13782974 0.078163736 -0.06296265
-0.19467483 -0.09772292 0.016552014 -0.0073007327 -0.017316598 0.009813574 -0.033321165 -0.0946974
0.09670587 0.059225425 0.17464927 -0.01813175 -0.0011925609 -0.086473145 -0.030578451 0.048129305
0.060086977 -0.08676633 -0.2423015 0.05679294 0.14590055 0.2398529 -0.1297057 -0.24543636
-0.47621277 -0.17308176 -0.10831638 -0.17782551 0.089496255 0.12805764 -0.034371275 0.07172418
-0.008462427 -0.0023605328 -0.048534896 0.074228905 0.0028189411 0.028933864 0.045821745 0.045616638
-0.05106196 -0.07211161 0.008230523 0.007027391 -0.11222823 -0.3231017 -0.05156236 0.022946043
0.023847846 0.008976088 -0.120631956 0.09046402 0.1547546 0.06670839 -0.05577365 -0.099353835
0.064783804 0.09365461 0.05274244 0.029525941 -0.032125585 0.105231665 -0.050343193 -0.1028465
0.0064019905 -0.009333922 -0.07029883 -0.028910384 0.08919468 -0.108500496 0.110799946 0.07904426
-0.033763055 0.07356434 0.20109801 0.04521034 -0.03447011 0.02643996 -0.085973844 -0.1526708
-0.07188187 -0.002754513 -0.0015993281 -0.08836822 -0.020135604 0.006578498 0.16375132 0.048454113
-0.07141484 0.10385898 0.020995075 0.09513311 0.026238797 -0.0035397455 -0.11831082 -0.050789505
0.1880772 0.023884956 0.020778049 -0.28924075 0.09680983 -0.07508403 -0.1789688 -0.09637257
0.14038989 0.101649664 -0.016857302 0.017405575 0.06449151 0.0020625475 0.0060134376 0.037809025
0.024947368 0.05289529 -0.00012745842 0.035436466 -0.057085566 0.020605894 0.0057964376 0.012700225
0.08957593 0.071669675 0.07432905 0.092907526 -0.03946753 -0.34186363 -0.210642 -0.09098394
0.0026263546 -0.045527346 0.08149394 0.08390054 -0.07565437 0.009504561 0.10521048 0.037752297
0.054716107 0.147096 0.04930797 -0.08717477 0.013059672 0.039186515 -0.09310091 -0.010117044

fc1.bias f4 [50]
00000000: 52e8 d13e dbe0 503e 1948 ce3e 8fc3 293f
00000010: b9a3 2a3f aa1c 7a3e 48c8 1d3f 085f dc3e
00000020: 63fc 163f 4bbf 223f f431 bd3e b200 983e
00000030: 61b5 f53e 77b5 1a3f e809 c33e 93f4 0a3f
00000040: 8d74 ab3e 92a9 0f3f 9667 a13e d2fd ad3e
00000050: 4e46 f73e f3ce 233f abf4 bd3e 8c9e 183f
00000060: 2c16 d63e 5d9b c53e 553a 023f 9797 993e
00000070: 5717 a23e baf1 e53e 271f c53e aa07 f93e
00000080: 1456 193f 43c0 103f a3da 563e f2bf df3e
00000090: 7d87 b73e ab11 eb3e fac4 6b3e 7ceb 1e3f
000000a0: 8ae8 033f 74c4 bd3e e385 d93e 1d00 0a3f
000000b0: b3c7 ef3e 8001 b03e dd1a 883e 4543 e43e
000000c0: 0039 b03e 5393 ae3e
0.4099756 0.20398276 0.4028938 0.66314024 0.6665607 0.24424997 0.6163373 0.43041253
0.5897886 0.6357314 0.36952174 0.2968803 0.47989944 0.60433143 0.38093495 0.5427944
0.3348736 0.5611812 0.31524342 0.33982712 0.48295826 0.63987654 0.3710073 0.59616923
0.4181379 0.38595095 0.5087026 0.29998466 0.31658432 0.44910985 0.3850033 0.4863866
0.5989697 0.5654337 0.20981841 0.4370113 0.35845557 0.45911917 0.2302436 0.6207807
0.515267 0.37063944 0.4248496 0.5390642 0.46832046 0.34376144 0.26582995 0.44582573
0.34418488 0.34096774

fc2.weight f4 [43, 50]
00000000: 7a80 30be 069c 8abe f331 8d3e 8671 f9bc
00000010: da8f 31bd 1600 34be 2d51 873e 46c6 2b3c
00000020: 5439 d4bd 4e8a fd3d 51dc a1be 6981 b1bd
00000030: eb0b 5fbe 3c6a 093e 3438 863e 9efe 10be
00000040: 551f 26be 8112 cf3d 2f21 45be 195b 6f3e
00000050: fcdd 85be 8d6a 943e d7cf 08be 2d43 2d3e
00000060: b8e1 8bbe 0443 6a3e 4916 853e 7e47 f83b
00000070: 5bdf 45be 9d7c e8bd a123 ba3c d9ce 763e
00000080: 50fb 543e 9eba 82be 597d 9bbe 177f d53d
00000090: 923b 723e a927 65be a1e7 84be b721 a63e
000000a0: a27f 04be 05db 763e 818e 83be 17b4 27bd
000000b0: a9f0 8a3e 587f c83d fd82 323e 26ed fcbd
000000c0: 656b 0abd 3120 ae3e dd7f 3abd f336 8bbd
000000d0: 8b06 823e 2e19 833e ab6c 8c3d 19ea 68be
000000e0: 5585 6f3c 3bcf 863e e789 073d 75f0 aa3e
000000f0: dfcb 5e3e f03f c6be eab5 81bd 130b 5d3e
00000100: 6911 843e 63ac 5c3c 0bf1 4bbe e07c 3dbd
00000110: 2bef debd db90 613e 733e 0cbd 24c6 693e
00000120: d537 a1be b5f2 cebd 9250 4abe 8684 3a3e
00000130: 6324 6e3e 8e92 0a3e 2e3a 25be fc27 71be
00000140: ebc7 80bd 2761 633e 887d 4f3c 5a12 31be
00000150: c851 abbd c5e5 4e3e 6027 2c3e 7ded 773e
00000160: eae5 8bbe 8487 b03e de5a 0d3e b738 94bd
00000170: 622e debc 7713 613e eb69 b13e 12f5 2a3e
00000180: 538a 1f3e ff8a 85bd d24f adbd 4aba ba3e
00000190: 369d 37bd a6db 5f3e 6287 763e 3d10 a83e
000001a0: 03ec 28bd b7ab 2a3e 3c01 93bd b2f3 9e3e
000001b0: dcb2 883e 8327 c03e 2866 783e 4dff 9bbe
000001c0: a34b 223e 37eb 0abe 2f5e ad3d db10 dcbc
000001d0: 9ef7 66be 2375 debd e8db 13be b100 f5bc
000001e0: 5f4f 6f3e 1806 b73d b914 c23d c098 1ebe
000001f0: c4f1 57be 609f 37be fe56 bdbd 9f83 04be
00000200: 1634 85be be12 19be 94cb 2cbe 08e3 5c3e
00000210: e042 14be 264c 5ebe 3e49 19bc 2af6 3f3e
00000220: 9587 263e 5c90 883e 3fca 54be 1be9 b63e
00000230: 39e0 013e 9576 863c dd6c 1bbd 4354 4b3e
00000240: 861d a23e 665b 183e 1d69 b4bd edad 22be
00000250: 89c3 82be cce8 b53e 9817 573e d5c7 4e3e
00000260: 7cc8 2a3c 03dd c13d 813d 3cbe b9ee 013e
00000270: a8af 85be 0719 753e 9607 903e 634a 9f3e
00000280: 07a9 5bbe f2b0 06be ab07 493e dc3c 47be
00000290: 4a33 20be 9f09 8bbd 83d9 bfbe 3fee 663e
000002a0: 3837 04be c622 8bbe 1c2e 6e3e 006b d9bd
000002b0: 313b 8fbd e0f7 3cbe 4d22 88be 2272 4c3e
000002c0: 2ab1 4dbe 76b2 55be 4963 a8bd f5b5 3c3e
000002d0: 1451 87be c95c 83be 1ce6 3c3e 9106 653e
000002e0: 5243 3bbe fdf3 263e 7c60 613e 60a9 8b3e
000002f0: 36fd 92be f22e a33e 55dd a6bd 9fec d8bd
00000300: aaca d3bd 10ad 3cbe 871b 9f3e f7ea 33be
00000310: d3ed 573e a8ec 6fbe 83b7 94be 5adb b33e
00000320: fda6 1bbe 82e5 a8be a4f0 9b3e d7be a23e
00000330: 1904 07be 88fe 51be f238 36bc 1d41 89bd
00000340: f7ab dcbc 80f0 a23e 001a d83d 282e b7be
00000350: 1139 8dbe 7ccb d7bd 60ec 8a3e fdd5 39bd
00000360: b282 0fbe cdcd 81be 9155 573e 2ea9 6a3e
00000370: ebe2 78be 948b 4a3e 629a adbe 6666 f03d
00000380: 1314 523e e755 5c3e 64cd b2bd 91e3 1e3e
00000390: 596c 9fbe a557 adbe 2ad4 5a3e 49d8 633e
000003a0: 0879 453e 03e6 88be e7c5 21be bcf3 97be
000003b0: 55b9 573e c3d7 07be b0de 90be 848d b93e
000003c0: 75b6 97bc 3ffb 533e 6718 99bd fa83 403e
000003d0: 177e b03e 96c0 91bd 2c9c 40be 1295 91be
000003e0: 8f52 8d3e e590 b23e b7c8 503e d1b0 4a3e
000003f0: 71e9 663e 7e01 973e b74d 24bd 9828 37bd
-0.1723651 -0.2707216 0.2757717 -0.03044964 -0.04335008 -0.17578158 0.2642912 0.010484284
-0.10362497 0.12379895 -0.316134 -0.08667261 -0.2178189 0.13419431 0.26214755 -0.14159629
-0.1622289 0.10110951 -0.1925094 0.23374595 -0.26145923 0.28987542 -0.13360535 0.16920157
-0.27320647 0.22877127 0.25993565 0.007576882 -0.19323485 -0.11351893 0.022722067 0.24102344
0.20798993 -0.25533003 -0.3036907 0.10424631 0.23655537 -0.2237841 -0.2595797 0.32447597
-0.12939313 0.24106987 -0.2569466 -0.04094323 0.27136734 0.09789914 0.1743278 -0.1234992
-0.033793826 0.34008935 -0.045532096 -0.0679759 0.25395617 0.25605148 0.06856664 -0.22745551
0.014619191 0.2632998 0.0330905 0.3338658 0.21757458 -0.38720655 -0.063335255 0.21586256
0.25794533 0.013468835 -0.1991617 -0.04626167 -0.108854614 0.22027914 -0.034239244 0.22829491
-0.3148791 -0.101048864 -0.19757298 0.18214616 0.23256068 0.13532469 -0.16135475 -0.23550409
-0.06288131 0.2220503 0.012664206 -0.17292157 -0.08365208 0.20204838 0.16811895 0.24211688
-0.27323848 0.3447839 0.13804194 -0.0723738 -0.027121726 0.21980081 0.34651121 0.1669505
0.1558011 -0.06520652 -0.0846249 0.36470252 -0.044827662 0.21861133 0.24075082 0.3282489
-0.041240703 0.16667067 -0.0717797 0.310453 0.2669896 0.37530145 0.2425772 -0.30468217
0.15849166 -0.1356629 0.0846523 -0.026863506 -0.22555396 -0.10862186 -0.14439356 -0.029907556
0.23370121 0.08936709 0.09476609 -0.15487957 -0.2108832 -0.1793189 -0.09245108 -0.12940834
-0.260163 -0.14948556 -0.16874534 0.2157098 -0.14478636 -0.21708736 -0.009355841 0.18746248
0.16262658 0.26672637 -0.20780276 0.3572472 0.1268319 0.016413966 -0.037945617 0.19856362
0.3166315 0.14878616 -0.08809111 -0.1588666 -0.25539806 0.35529172 0.21005094 0.20193417
0.010423776 0.09465983 -0.18382837 0.12688722 -0.26110578 0.23935328 0.28130788 0.3111144
-0.21451198 -0.13153437 0.19631831 -0.1945681 -0.15644565 -0.067889445 -0.37470636 0.22551821
-0.1291169 -0.27174968 0.23259777 -0.10616112 -0.06993712 -0.18453932 -0.2658867 0.19965413
-0.20087114 -0.20868859 -0.08222062 0.18428786 -0.26429045 -0.25656727 0.18447155 0.22365786
-0.182874 0.16304012 0.22009462 0.2727766 -0.2870881 0.31871754 -0.081476845 -0.10592007
-0.103413895 -0.18425393 0.3107569 -0.175701 0.21086816 -0.23430121 -0.29046258 0.3512829
-0.1520042 -0.329876 0.30457032 0.31786224 -0.13185157 -0.20507252 -0.011121975 -0.067018725
-0.026937468 0.31824112 0.10551834 -0.35777402 -0.275826 -0.105368584 0.27133465 -0.04537009
-0.140147 -0.25352326 0.21028735 0.229161 -0.24305312 0.19779807 -0.33906847 0.11738281
0.2051547 0.21517144 -0.087305814 0.15516497 -0.3113735 -0.3385593 0.21369997 0.22250475
0.19284451 -0.26737985 -0.1579815 -0.29678142 0.21066792 -0.132659 -0.28294897 0.3624078
-0.01851962 0.20701312 -0.074753575 0.18800345 0.344712 -0.07116811 -0.18809575 -0.28434044
0.2760205 0.3487617 0.20389067 0.19794013 0.22549988 0.29493326 -0.040113177 -0.044716448

fc2.bias f4 [43]
00000000: cbba 47bf faeb 353f 69a7 7e3f 61fb 9b3f
00000010: 95bd 6c3f 2aa5 1f3f 2599 e3bd 939a 39be
00000020: 87dd 403f f45b 6c3f b4ca 353e 798a 2cbe
00000030: 9c30 5d3d d899 34be 3963 a1bd b353 233f
00000040: 9083 65bf 9fe7 083f 662c e43e eeaf 0abf
00000050: 05f2 e2be 5aef 08bf 64a7 683d 460b f03d
00000060: b487 23bf 0514 513e ae5f f8bd c2f1 34bf
00000070: c46e f33e f8da 00bd 47e9 d13d 3f78 843f
00000080: 4ce0 c73d 0238 73be 4bd8 b6be a163 dabe
00000090: e246 5ebf ff8f 3bbf a746 1d3f 19ea 2bbf
000000a0: c9cc cfbe 77f5 e1be db51 77bf
-0.780194 0.71063197 0.994742 1.218609 0.9247678 0.62361395 -0.111131944 -0.18125372
0.75338024 0.9232781 0.17753106 -0.16849698 0.054001436 -0.17636812 -0.07880253 0.6379959
-0.89653873 0.53478426 0.44565123 -0.541747 -0.4432527 -0.5349022 0.05680026 0.117209
-0.6387894 0.20417793 -0.121276245 -0.70681393 0.47545445 -0.031458825 0.10249572 1.0349196
0.09759578 -0.23751834 -0.35711893 -0.42654136 -0.8682691 -0.73266596 0.6143593 -0.6715408
-0.40585926 -0.44132587 -0.96609277
