model/model_itr1.pth (torch_old, 133417 bytes, 8 tensors)

conv1.weight f4 [10, 3, 5, 5]
0	0x3ced12dd	0.028939659
1	0x3c8d76df	0.017268596
2	0x3d742f16	0.059615217
3	0xbd25f168	-0.040513426
4	0xbec858af	-0.3913016
5	0x3dc9c9c9	0.098529406
6	0x3da3c794	0.07997051
7	0x3e286366	0.16444167
8	0xbdc074d0	-0.0939728
9	0xbeb781c9	-0.35841206
10	0x3d9072a7	0.07053118
11	0x3dfe1c19	0.12407703
12	0x3e01f84f	0.12692378
13	0xbe506993	-0.20352773
14	0xbecc9271	-0.39955476
15	0x3c9aa3f0	0.018877
16	0x3ddb479a	0.10707016
17	0x3d0a3ec1	0.033751253
18	0xbda4559f	-0.080241434
19	0xbea81163	-0.32825765
20	0xbd17e818	-0.037086576
21	0xbdfd47fe	-0.12367247
22	0xbe12a1bf	-0.14319514
23	0xbea1c65c	-0.3159665
24	0xbea9bc61	-0.33151534
25	0x3df4eb51	0.119589455
26	0x3e882b9e	0.26595777
27	0x3e8a6f37	0.27037975
28	0xbdc9f32d	-0.09860835
29	0xbdcbdcd1	-0.09954227
30	0x3e46918a	0.19391456
31	0x3ea4f612	0.32218987
32	0x3e9db821	0.30804542
33	0xbda1d7f1	-0.07902516
34	0xbea16a21	-0.31526282
35	0x3dc0c89c	0.09413263
36	0x3e9e07d6	0.30865353
37	0x3e3a54a5	0.18196352
38	0x3d3105b3	0.043218326
39	0xbe94358c	-0.28947103
40	0x3e4d046f	0.20021223
41	0x3db6064c	0.0888792
42	0x3e54508b	0.2073385
43	0xbd4b4301	-0.049624447
44	0xbe9218b2	-0.28534466
45	0x3da545f7	0.08069985
46	0xbdc81704	-0.09770015
47	0xbd2b07eb	-0.041755598
48	0xbe674432	-0.22584608
49	0xbe5b0115	-0.21387132
50	0xbdba7aca	-0.091054514
51	0x3d819676	0.06327526
52	0x3e860649	0.2617667
53	0x3d7ef91f	0.0622493
54	0x3db5d65a	0.08878775
55	0x3e30e5bc	0.17275137
56	0x3e00a35a	0.12562314
57	0x3e08c9bb	0.13358204
58	0x3e25d128	0.16193068
59	0xbc6f82dc	-0.014618602
60	0x3b902709	0.0043991846
61	0x3e4d664a	0.20058551
62	0x3e70b958	0.23508203
63	0x3e1b5bd6	0.15171751
64	0xbe16d934	-0.14731294
65	0xbc37ace7	-0.011210657
66	0x3d6d03fa	0.05786512
67	0x3de02ce6	0.10946064
68	0xbdb2f86a	-0.087387875
69	0xbe2c2179	-0.16809644
70	0x3bc77c41	0.0060878103
71	0xbe03bca8	-0.12864935
72	0xbcee1343	-0.02906192
73	0xbe0d34a8	-0.13789618
74	0xbd3e0731	-0.046393577
75	0xbe333d1d	-0.17503782
76	0xbda546f3	-0.08070173
77	0x3ccec688	0.025241151
78	0xbda410c6	-0.08011012
79	0x3da49889	0.08036906
80	0xbe815638	-0.25261092
81	0xbddf95f4	-0.10917273
82	0x3d75cb55	0.060008366
83	0x3d831507	0.06400495
84	0x3dcc7966	0.099840924
85	0xbe4a39c5	-0.197486
86	0xbd8aca3a	-0.06776853
87	0x3e2586a8	0.16164649
88	0x3da9ef83	0.08297636
89	0x3dbf15ba	0.09330316
90	0xbdb28e15	-0.08718506
91	0xbd8b8187	-0.06811815
92	0x3d9bb347	0.07602554
93	0x3d82ae59	0.063809104
94	0xbe075a65	-0.13218077
95	0xbe16d353	-0.14729051
96	0xbb9c29d5	-0.004765729
97	0xbcf86302	-0.030320648
98	0xbe1fbf7f	-0.15600394
99	0xbe6b3c5b	-0.22972243
100	0xbd8bf331	-0.068334945
101	0xbd996918	-0.07490748
102	0x3db9120a	0.09036644
103	0x3dff2a38	0.124592245
104	0xbc4244d2	-0.011857228
105	0xbe6222c8	-0.2208358
106	0x3e28497b	0.1643428
107	0x3ddf54b9	0.109048314
108	0x3e56645a	0.20936719
109	0x3dcf31c6	0.101169154
110	0xbd0dfe90	-0.034666598
111	0x3e4e1fb1	0.20129277
112	0x3e76ce0a	0.24102035
113	0x3da467e9	0.08027632
114	0x3dcf99c7	0.101367526
115	0xbbd03b86	-0.006354752
116	0x3e266240	0.16248417
117	0x3e2c60de	0.16833827
118	0xb9ad0e9c	-0.00033008016
119	0xbda6fad4	-0.081533104
120	0xbe31ef98	-0.17376554
121	0xbc2257d4	-0.009908635
122	0x3d9f4122	0.07776095
123	0xbe2a106b	-0.16607825
124	0xbdd9a00b	-0.10626229
125	0xbe7374e0	-0.23775053
126	0xbe3225c7	-0.17397223
127	0xbd2f7b73	-0.04284234
128	0x3db7ee1d	0.089809634
129	0x3e0eee56	0.13958105
130	0xbe2c2058	-0.16809213
131	0x3db39f8d	0.08770666
132	0x3e335f34	0.17516786
133	0x3e2ba130	0.16760707
134	0x3dfe5992	0.12419428
135	0x3d6a5ff8	0.05722043
136	0x3e56006e	0.20898601
137	0x3e11245f	0.1417403
138	0x3d451e80	0.04812479
139	0xbcf56e8c	-0.02995994
140	0xbdb6468e	-0.08900176
141	0x3dc9a4e5	0.09845904
142	0x3c7e3346	0.015515154
143	0x3dd0db05	0.10198025
144	0x3cd7990d	0.026318097
145	0xbd8e4848	-0.0694738
146	0x3d86ddd1	0.06585277
147	0x3b7d9690	0.0038694479
148	0xbd0e1c1d	-0.03469478
149	0xbda78682	-0.08179952
150	0xbd3a792f	-0.045525726
151	0x3dc9c88e	0.09852706
152	0x3bed4796	0.0072411997
153	0x3d2deabb	0.042460185
154	0xbe1ad3ef	-0.15119909
155	0xbe1876d1	-0.14889075
156	0xbe5ec1aa	-0.21753564
157	0xbdc6f897	-0.097153835
158	0x3e53718c	0.20648783
159	0x3d0c6de5	0.03428449
160	0xbd7eff3e	-0.062255137
161	0xbd91d202	-0.07120134
162	0xbdb8074c	-0.08985767
163	0x3e0c463d	0.13698669
164	0x3d1537e5	0.03643026
165	0x3e33703a	0.1752328
166	0x3d03827a	0.032106854
167	0xbddb94a3	-0.107217096
168	0xbe00aab0	-0.12565112
169	0xbbbe9bee	-0.005816928
170	0x3e01ff1f	0.12694977
171	0x3e7dbba7	0.24778615
172	0x3dcded94	0.1005508
173	0x3d45edd5	0.048322517
174	0x3e2e2a62	0.17008355
175	0xbc369562	-0.011144014
176	0xbcb1ec90	-0.021719247
177	0x3ca11b46	0.019666325
178	0x3ce77561	0.028254213
179	0x3dd00a28	0.10158187
180	0xbe3155ae	-0.1731784
181	0xbe846f71	-0.25866273
182	0xbe4280f6	-0.18994507
183	0x3e15b7f4	0.14620954
184	0x3d745209	0.059648547
185	0x3de291a3	0.11062934
186	0xbea3088d	-0.3184246
187	0xbea3eecf	-0.32018134
188	0x3d361215	0.044450838
189	0x3d9e053c	0.07715842
190	0x3e41729e	0.18891379
191	0xbd7b6e9e	-0.06138479
192	0xbe9430b6	-0.28943413
193	0xbe049715	-0.12948258
194	0x3de409b0	0.1113466
195	0x3d65a98e	0.056069903
196	0x3e25d427	0.16194211
197	0xbce19dd5	-0.02754108
198	0xbd4bdf82	-0.0497737
199	0xbdf44e93	-0.11929049
200	0xbdb25a21	-0.08708597
201	0xbe237548	-0.15962708
202	0x3e364ad3	0.1780198
203	0x3e0421ff	0.12903593
204	0x3deca272	0.115544215
205	0xbddae7bc	-0.10688731
206	0xbe756650	-0.2396481
207	0xbd0e97b4	-0.034812644
208	0x3e8a9bbb	0.27071938
209	0x3e758659	0.23977031
210	0x3daa9e9f	0.08331036
211	0xbe224256	-0.15845618
212	0xbe9779bf	-0.29585072
213	0x3e4b7f19	0.19872703
214	0x3e929461	0.2862883
215	0x3ea26441	0.31717113
216	0x3dd94995	0.10609738
217	0xbe9e759c	-0.30949104
218	0xbe1ddefd	-0.15417095
219	0x3e1e1a16	0.15439638
220	0x3de0dfa4	0.10980156
221	0x3e81dbf8	0.25363135
222	0xbe4732a0	-0.19452906
223	0xbe858df1	-0.26084855
224	0x3c7772ff	0.015103101
225	0xbe320689	-0.17385305
226	0xbd3b1613	-0.04567535
227	0x3e2ae6ba	0.16689578
228	0x3e694cbc	0.22783178
229	0x3e8cc5de	0.2749471
230	0xbdffe8d6	-0.12495582
231	0xbd874766	-0.06605415
232	0x3e724aeb	0.23661391
233	0x3e18219a	0.14856568
234	0x3e365fba	0.17809954
235	0xbde277cd	-0.110580064
236	0xbd9ac28f	-0.0755664
237	0x3e4ae982	0.19815639
238	0x3e59545c	0.21223587
239	0x3d88bb63	0.06676366
240	0xbec8c6a2	-0.39214045
241	0xbea1576b	-0.31512007
242	0xbe3f2086	-0.1866475
243	0xbe2dcad2	-0.16971901
244	0xbdfb787b	-0.12278839
245	0xbe79fdd5	-0.24413235
246	0xbef8cb71	-0.48592713
247	0xbf05db21	-0.5228749
248	0xbef5b796	-0.47991627
249	0xbdde19e3	-0.10844781
250	0x3d02a366	0.03189411
251	0xbc4deb70	-0.01256834
252	0x3db3a975	0.08772556
253	0x3e1c4346	0.15260038
254	0x3e18beba	0.14916506
255	0xbdf52188	-0.11969286

conv1.bias f4 [10]
0	0x3eac9f04	0.3371507
1	0x3ebe6863	0.37189016
2	0x3e6f2bfc	0.23356622
3	0x3e76c077	0.24096857
4	0x3dd3b4d9	0.10337228
5	0x3ed20836	0.4102189
6	0x3f567623	0.8377401
7	0x3e96980e	0.29412884
8	0xbdd92371	-0.10602463
9	0x3e9ecfe4	0.31017983

conv2.weight f4 [20, 10, 5, 5]
0	0x3c287854	0.010282595
1	0xbd8ff294	-0.0702869
2	0x3d8ce06f	0.06878745
3	0xbdac642f	-0.08417546
4	0xbbf2c2fc	-0.007408498
5	0xbdbdd838	-0.09269756
6	0xbe0080de	-0.12549159
7	0x3ca53e20	0.020171225
8	0xbca92cdf	-0.020651279
9	0x3e076a30	0.13224101
10	0xbe03789f	-0.12838982
11	0xbd13ad83	-0.036054146
12	0x3d0e0382	0.034671314
13	0x3db1f3c3	0.08689072
14	0x3dd58086	0.104249045
15	0xbd6db95a	-0.058038093
16	0xbd123102	-0.03569127
17	0x3db2a34d	0.087225534
18	0xbd24a5b7	-0.0401971
19	0xbd4f1fc0	-0.05056739
20	0xbe2917d1	-0.16512991
21	0xbd526944	-0.05136992
22	0x3e2d8ef4	0.16949064
23	0xbd310ad9	-0.043223236
24	0xbd6818e3	-0.05666436
25	0xbc9c5995	-0.019085685
26	0xbc8e8a4f	-0.017399935
27	0xbce9cc71	-0.028539868
28	0x3c0a5a2f	0.008444353
29	0x3d1b4205	0.037904758
30	0xbdb49adb	-0.08818599
31	0x3ca7b588	0.020472303
32	0xbbef8c9d	-0.0073104636
33	0x3b80ea80	0.0039342046
34	0x3daa6b50	0.083212495
35	0x3d28c5fc	0.041204438
36	0x3deb634e	0.1149355
37	0x3c28e4ec	0.0103084855
38	0xbd5b5380	-0.05354643
39	0xbd87231d	-0.06598494
40	0x3d6d7918	0.057976812
41	0x3e0e34ac	0.1388728
42	0x3daecf8a	0.08535679
43	0xbd0292c6	-0.031878255
44	0xbd6948da	-0.056954242
45	0xb78d7e26	-1.6867252e-05
46	0x3ddaece6	0.10689716
47	0x3d32d5e2	0.043661006
48	0xbe0690cf	-0.13141178
49	0xbc5d3e25	-0.013503586
50	0x3c8a6d70	0.016897887
51	0xbcd15b5b	-0.025556257
52	0x3d80531e	0.06265853
53	0x3d486128	0.04892078
54	0xbca155ab	-0.01969417
55	0x3d9b8c90	0.075951695
56	0x3be018c0	0.006838888
57	0x3d24074e	0.04004603
58	0x3e1fa108	0.15588772
59	0x3d18935d	0.03724991
60	0x3d7baa03	0.061441433
61	0x3b5f9cd3	0.0034120574
62	0xbdcdc379	-0.10047049
63	0x3dc1ec37	0.094688825
64	0x3d0b788c	0.03405051
65	0xbaaa5abb	-0.001299701
66	0xbda97596	-0.08274381
67	0xbd99c39a	-0.07508011
68	0xbd017250	-0.031603158
69	0xbd57a7ad	-0.052650142
70	0x3d88e1b1	0.06683672
71	0xbd32ef6d	-0.043685365
72	0xbd4b059f	-0.049565908
73	0xbce8fe97	-0.02844171
74	0xbd1b12f8	-0.037859887
75	0x3e1ec6ee	0.15505573
76	0x3e29b28d	0.16572018
77	0xbd35c5b6	-0.044378005
78	0xbd2202e5	-0.03955354
79	0xbbf297d5	-0.0074033537
80	0x3b887399	0.004164171
81	0xbd5675ca	-0.052358426
82	0xbddfa181	-0.10919476
83	0x3c8759c6	0.0165223
84	0x3d86ccd0	0.06582034
85	0xbe09d33f	-0.1345949
86	0xbdc3fdac	-0.095698684
87	0xbd9de662	-0.07709958
88	0xbd9de403	-0.077095054
89	0x3cd9345e	0.026514228
90	0xbdf0e116	-0.11761682
91	0xbcb2c04d	-0.021820212
92	0xbde6371d	-0.11240981
93	0xbdf99161	-0.12185932
94	0xbde628b8	-0.11238235
95	0x3cce62db	0.025193622
96	0xbc4fc420	-0.012681037
97	0xbde11a9b	-0.10991403
98	0xbdbed2d9	-0.0931756
99	0xbe0e30d4	-0.13885814
100	0x3e4244ab	0.18971507
101	0x3d9df103	0.07711985
102	0xbd14f657	-0.03636774
103	0x3d0da6a6	0.034582756
104	0xbd8ca5ab	-0.06867536
105	0x3d8b212b	0.06793436
106	0xbc159dd7	-0.00913187
107	0xbda863d5	-0.082221664
108	0x3cac5d61	0.02104062
109	0x3d3e572f	0.046469864
110	0xbde36fbe	-0.111052975
111	0xbd1ba74c	-0.038001344
112	0xbd066e87	-0.03282025
113	0x3cb2bfb2	0.021819923
114	0x3d341579	0.04396579
115	0xbcd4b0a0	-0.025963128
116	0xbd98469b	-0.07435342
117	0xbc958284	-0.018250711
118	0xbc80f76d	-0.015742982
119	0xbc96e36c	-0.01841899
120	0xba73ec5c	-0.00093049346
121	0xbd848095	-0.064698376
122	0xbcefeefd	-0.029288763
123	0x3d8b3847	0.067978434
124	0x3d7b8f15	0.06141575
125	0xbe113a95	-0.14182504
126	0xbd061b46	-0.032740854
127	0x3c5ad11a	0.013355518
128	0x3cd4882b	0.025943836
129	0x3d8c7c33	0.068596266
130	0x3d91e1cd	0.07123146
131	0x3de75129	0.11294777
132	0x3de567b8	0.112014234
133	0x3c84dc54	0.016218342
134	0xbddf56c9	-0.10905225
135	0x3df71f3d	0.12066505
136	0x3d9d414e	0.076784715
137	0x3d2d6fab	0.042342823
138	0xbe27655d	-0.16347261
139	0xbddb980d	-0.10722361
140	0xbd345e35	-0.044035155
141	0xbd35a5d2	-0.04434759
142	0xbe0ef9e7	-0.13962518
143	0xbe468b6e	-0.19389126
144	0x3db96250	0.09051955
145	0xbe5140f6	-0.20434937
146	0xbd1fb2d1	-0.038988892
147	0xbde11dea	-0.10992034
148	0xbe627c0c	-0.22117633
149	0x3e0a81ea	0.13526121
150	0x3d651a46	0.05593326
151	0x3df1449c	0.11780664
152	0x3ddec112	0.10876669
153	0x3dde4fdb	0.10855075
154	0xbd71830d	-0.05896287
155	0x3dd5ea55	0.10445086
156	0x3ce93950	0.028469712
157	0x3cf34bb9	0.029699193
158	0x3dcb9d26	0.09942083
159	0x3a9b5222	0.0011850039
160	0x3c71d8d0	0.014761165
161	0xbcfeaf2f	-0.031089393
162	0xbd943a7a	-0.07237716
163	0x3de5c682	0.11219503
164	0x3db0e614	0.08637634
165	0xbd97ee28	-0.074184716
166	0xbd340eb9	-0.043959353
167	0x3cf3ade2	0.029746
168	0x3ddbac1b	0.10726186
169	0x3e0324b6	0.12806973
170	0x3cfda3de	0.030961927
171	0xbe22b917	-0.15890919
172	0xbce78a3b	-0.028264156
173	0x3e133644	0.1437617
174	0x3c1b4a9f	0.00947824
175	0x3d964f5a	0.07339354
176	0x3d025629	0.03182045
177	0xbc493603	-0.012280944
178	0xbb4416ea	-0.0029920884
179	0x3d1aba9c	0.03777562
180	0x3bb92900	0.0056506395
181	0x3d524afb	0.05134104
182	0x3c80d27f	0.015725372
183	0x3c822926	0.015888762
184	0x3d7ea884	0.062172428
185	0x3c760742	0.015016379
186	0xbd5f6c23	-0.054546487
187	0xbd27bca0	-0.04095137
188	0xbd2f8407	-0.04285052
189	0x3c655b67	0.013998843
190	0x3d3f502c	0.046707317
191	0xbd98f7d7	-0.07469147
192	0xbd0906e4	-0.033453837
193	0x3d5fd260	0.05464399
194	0xbd829216	-0.0637552
195	0x3c23c1de	0.009994952
196	0x3d3c513c	0.04597591
197	0x3d0e6a87	0.03476956
198	0x3c440299	0.01196351
199	0xbd5b0212	-0.05346877
200	0xbb25d88e	-0.0025306079
201	0xbdaf5169	-0.0856045
202	0xbceabd5d	-0.028654749
203	0xbd5d42a3	-0.054018628
204	0xbcacfeca	-0.021117587
205	0x3d358eda	0.044325687
206	0xbd28dc07	-0.04122546
207	0xb89c045e	-7.439473e-05
208	0x3dbbab8b	0.091635786
209	0xbcd12caf	-0.025534002
210	0x3c878153	0.016541159
211	0xbd901a2b	-0.07036241
212	0xbccbd09f	-0.024879752
213	0x3d16411b	0.036683183
214	0x3d933e9d	0.07189677
215	0xbdc70f2e	-0.09719692
216	0xbcd6f2cb	-0.02623882
217	0x3d05607d	0.03256272
218	0x3db4baed	0.08824716
219	0x3e31e641	0.17372991
220	0xbd7b9019	-0.06141672
221	0xbd20bf39	-0.039244864
222	0x3dd6dacb	0.1049095
223	0x3dfddc6b	0.12395557
224	0x3d505573	0.05086274
225	0xbd6f2337	-0.058383193
226	0xbd60eaeb	-0.054911535
227	0x3db2ac8f	0.08724319
228	0xbcb655c6	-0.022257697
229	0x3d2acd61	0.04169977
230	0x3b71493f	0.003681734
231	0x3aec8a39	0.0018046565
232	0x3d94044f	0.07227384
233	0xbdaa988f	-0.083298795
234	0xbd16edaa	-0.036847748
235	0x3d0e3f7e	0.03472852
236	0xbd91e4e2	-0.07123734
237	0xbd98a8d4	-0.074540764
238	0xbd8b9aaa	-0.06816609
239	0x3b21b1fd	0.002467274
240	0xbda5af9b	-0.08090135
241	0xbdbdb0ae	-0.092622146
242	0x3c673fb0	0.014114305
243	0xbd1dfd9a	-0.03857193
244	0xbc674f74	-0.014118064
245	0x3cdc78a0	0.026912987
246	0x3d80b2c3	0.06284096
247	0x3d9dba31	0.07701529
248	0xbcf6ac01	-0.030111315
249	0xbd29cfb0	-0.04145783
250	0x39c48a9d	0.00037487308
251	0x3d8da943	0.0691705
252	0x3d7e1e66	0.06204071
253	0x3cddc80f	0.027072934
254	0xbd859c22	-0.065239206
255	0x3d3e919f	0.046525594

conv2.bias f4 [20]
0	0x3cba90be	0.022774097
1	0x3e0538dc	0.13009971
2	0x3da90ddd	0.08254597
3	0x3d3080bb	0.043091517
4	0x3df4d5d4	0.11954847
5	0xbba7befe	-0.0051192036
6	0x3dbd17ef	0.092330806
7	0x3dc02c18	0.0938341
8	0x3d8fa443	0.07013752
9	0x3d926d42	0.071497455
10	0x3d87d49a	0.066323474
11	0x3de3bd2b	0.11120065
12	0x3c3fa449	0.0116968835
13	0x3e0adc65	0.13560636
14	0x3d224798	0.03961906
15	0xbc39d5a3	-0.011342439
16	0x3db394b4	0.08768597
17	0x3dd54aea	0.10414679
18	0x3d4975a3	0.049184453
19	0x3d25df9d	0.040496457

fc1.weight f4 [50, 500]
0	0xbc47de16	-0.0121989455
1	0xbd7ceb9c	-0.061748132
2	0xbd3b1986	-0.045678638
3	0x3c01ea0c	0.007929336
4	0x3c4a9c0d	0.012366307
5	0x3c52059f	0.012818723
6	0x3ceae070	0.028671473
7	0xbd1798dc	-0.037011012
8	0x3c919e1d	0.01777559
9	0x3d855d74	0.065119654
10	0x3dfc6b3e	0.12325142
11	0xbb465124	-0.0030260766
12	0xbd69a251	-0.057039563
13	0x3d034a6b	0.032053392
14	0xbd602ca0	-0.054730058
15	0xbd99623b	-0.07489439
16	0x3d8a7216	0.067600414
17	0x3de92bc6	0.11385302
18	0x3dc3ba94	0.09557071
19	0xbd91c37c	-0.07117364
20	0xbd835867	-0.06413346
21	0x3c76927a	0.015049571
22	0x3c1f40d6	0.009720048
23	0xbc7ee3e8	-0.015557267
24	0xbd59ad6a	-0.053143896
25	0xbd9501f2	-0.07275762
26	0x3cdedcbb	0.027204862
27	0xbd2f6229	-0.042818222
28	0x3d2e9267	0.04262009
29	0x3ccc9076	0.024971228
30	0x3dde9e31	0.10870016
31	0x3d3bfbc3	0.045894396
32	0x3e047e09	0.12938704
33	0xbd85d921	-0.06535555
34	0xbd8a6676	-0.06757824
35	0xbe0a0d08	-0.13481534
36	0xbdc999de	-0.09843801
37	0x3de63b9d	0.11241839
38	0xbd43ee09	-0.04783443
39	0xbcde8a23	-0.027165478
40	0xbd7b670b	-0.061377566
41	0x3c82280a	0.015888233
42	0xbc7528ab	-0.014963309
43	0xbd00dc74	-0.03146024
44	0x3c9c9e51	0.01911846
45	0xbcb677bf	-0.022273896
46	0xbbea7617	-0.0071551907
47	0x3cd4e97c	0.02599024
48	0xbcf6f9f3	-0.030148482
49	0xbd25e4e4	-0.04050149
50	0x3b4277c7	0.0029673444
51	0xbc2f576f	-0.010701998
52	0x3d857124	0.065157205
53	0xbb797e69	-0.003806973
54	0xbc1d31e8	-0.009594418
55	0x3d1a1045	0.037613172
56	0x3d85c778	0.06532186
57	0xbc05b34e	-0.008160425
58	0xbd1ab347	-0.03776863
59	0x3a34434d	0.00068764837
60	0x3d03cc24	0.032177106
61	0x3de0bc02	0.1097336
62	0x3cdd471b	0.027011445
63	0xbdde0154	-0.10840097
64	0xbcd21529	-0.025644856
65	0xbdee2fe2	-0.11630227
66	0xbd52e993	-0.051492285
67	0xbc31a432	-0.01084237
68	0x3daeb57f	0.085307114
69	0x3abe87c1	0.0014536307
70	0xbc8e26eb	-0.017352542
71	0x3cb2c510	0.021822482
72	0x3c3b2f02	0.011424782
73	0x3d0ee14b	0.034882825
74	0xbd25288d	-0.040321875
75	0xbcb6452a	-0.022249777
76	0x3ccd3708	0.025050655
77	0x3d116f55	0.035506565
78	0x3c7bdfd3	0.015373188
79	0xbddeed6f	-0.108851306
80	0x3ca526c0	0.020160079
81	0xbc281a33	-0.010260153
82	0xbd5f6572	-0.054540105
83	0x3c104248	0.008804865
84	0x3c5b293c	0.01337653
85	0x3d47f395	0.048816282
86	0x3c9ec736	0.0193821
87	0xbd4d39c3	-0.050103914
88	0xbd6d6ddd	-0.057966102
89	0x3c5f8f24	0.013644967
90	0xbaca6e61	-0.0015444272
91	0x3d083ca2	0.03326095
92	0xbe13733c	-0.14399427
93	0xbcd78c67	-0.026312066
94	0x3d92bcb8	0.071649015
95	0x3b908250	0.0044100657
96	0x3d5a2fc7	0.05326822
97	0x3d9024cf	0.07038271
98	0x3d2a51e0	0.04158199
99	0xbd0a9303	-0.033831608
100	0x3d2fd74d	0.042929936
101	0x3bfe5006	0.0077610044
102	0x3d47d81b	0.04879008
103	0x3ba462ee	0.005016676
104	0x3d47607d	0.048676003
105	0xbc1d65b8	-0.009606771
106	0xbd2316c8	-0.039816648
107	0xbcee01d6	-0.02905361
108	0x3d6df05a	0.058090545
109	0x3d666a15	0.05625351
110	0x3cb9d1e0	0.022683084
111	0xbc83fa69	-0.016110616
112	0xbdc729c7	-0.09724765
113	0xbd7cd0e1	-0.06172264
114	0xbd11402f	-0.0354616
115	0xbce48f0a	-0.027900238
116	0xbd571383	-0.052508842
117	0xbc09d392	-0.008412259
118	0xbc4ac177	-0.012375227
119	0xbdce3f26	-0.10070638
120	0x3c9eee2f	0.019400684
121	0x3cbd0b56	0.023076694
122	0x3d54033b	0.051760893
123	0xbdd0d44c	-0.101967424
124	0xbc17aa0e	-0.009256853
125	0xbd5906d1	-0.052985016
126	0x3d9b378a	0.075789526
127	0xbd9b65dc	-0.075877875
128	0xbc865777	-0.016399128
129	0xbb4d4816	-0.0031323484
130	0xbcf56771	-0.029956551
131	0x3dbb0c18	0.09133166
132	0xba8d4da5	-0.0010780586
133	0xbd2a546a	-0.04158441
134	0xbcfaf55a	-0.03063457
135	0xbdec8a81	-0.11549855
136	0xbe10d634	-0.14144212
137	0x3c8b8bf8	0.017034516
138	0xbd989db8	-0.074519575
139	0xbd92f693	-0.071759365
140	0xbcb1903b	-0.02167522
141	0x3e165fc7	0.14684974
142	0xbaf4d08d	-0.0018677876
143	0xbdc9f9db	-0.09862109
144	0x3a508bf8	0.0007955427
145	0xbd682823	-0.056678902
146	0x3c8da90a	0.017292518
147	0x3d2f4d83	0.04279853
148	0x3d9f8722	0.077894464
149	0x3d0963d9	0.033542488
150	0x3d198f68	0.03749028
151	0xbcea8e27	-0.028632237
152	0xbd1f9d8f	-0.03896862
153	0xbdd1047f	-0.10205936
154	0x3cbf9bb2	0.023389671
155	0x3c34d64b	0.01103742
156	0x3d12c24f	0.03582984
157	0xbe35ec49	-0.17765917
158	0xbd7f4d55	-0.06232961
159	0x3ce3a023	0.02778632
160	0xbc8921a1	-0.016739668
161	0xbd316ce4	-0.043316737
162	0xbe5dc4bc	-0.2165708
163	0xbc192e30	-0.009349391
164	0x3d193e9b	0.03741322
165	0x3caf470f	0.021396188
166	0x3cf4c935	0.0298811
167	0x3db349b1	0.0875429
168	0x3de550fa	0.11197086
169	0xbc41866f	-0.011811837
170	0xbc723ce3	-0.014785024
171	0xbd2c303b	-0.042038184
172	0xbd48eeaf	-0.04905575
173	0x3d4b7e78	0.049681157
174	0x3cc1614b	0.023605963
175	0xbd41eae3	-0.047343146
176	0xbc0b5c91	-0.008505956
177	0xbd646e60	-0.055769324
178	0xbd9f32a9	-0.077733345
179	0xbd98cd71	-0.0746106
180	0x3d453b8d	0.048152495
181	0x3da398d1	0.07988132
182	0x3d62dd51	0.055386845
183	0x3bca76d4	0.006178716
184	0xbc8c4329	-0.017121868
185	0x3c86a638	0.016436681
186	0x3cc20867	0.023685647
187	0x3dab4294	0.08362308
188	0x3c4e88b2	0.012605833
189	0xbbdb4d1d	-0.006692542
190	0xbd8e8d1e	-0.0696051
191	0xbc933ac7	-0.017972363
192	0x3d9b9bdd	0.07598088
193	0x3ce64450	0.028108746
194	0x3d94259a	0.072337344
195	0x3c1680dd	0.009185997
196	0xbd6da4a1	-0.05801833
197	0xbc66cc63	-0.0140868155
198	0x3cfdc22e	0.030976381
199	0xbae6d781	-0.0017611833
200	0x3cd1ff74	0.025634505
201	0x3d280b1c	0.04102622
202	0xbba94a58	-0.005166333
203	0x3d96c3db	0.07361575
204	0x3c1b664e	0.009484841
205	0xbd86a34b	-0.065741144
206	0xbe04257c	-0.12904924
207	0xbccd096c	-0.025028907
208	0x3db0ba13	0.08629241
209	0xbc987fdb	-0.018615654
210	0xbde533ec	-0.11191544
211	0xbe42111f	-0.18951844
212	0x3ad592a1	0.0016294309
213	0x3d45e769	0.048316393
214	0xbc43c13c	-0.011947926
215	0xbd07b328	-0.03312984
216	0x3cd87bf2	0.02642629
217	0x3dcafc81	0.099114425
218	0xbb88481e	-0.0041589877
219	0xbd6eace8	-0.058270365
220	0x3cf01389	0.02930619
221	0xbc98b63a	-0.01864158
222	0xbdc51990	-0.09624016
223	0xbca4bf5c	-0.020110779
224	0x3c273ea4	0.010207806
225	0xbd31974d	-0.043357182
226	0xbc645ec3	-0.013938609
227	0x3db7003c	0.089355916
228	0xbc9c7b7d	-0.019101853
229	0x3d231ac6	0.039820455
230	0xbd9f1478	-0.07767576
231	0xbbe3ad41	-0.0069481437
232	0xbdfca7dd	-0.12336705
233	0x3de25edf	0.110532515
234	0x3d68c51c	0.056828603
235	0xbd02715d	-0.031846393
236	0xbdb801be	-0.08984707
237	0xbdba0323	-0.090826295
238	0x3d609c80	0.05483675
239	0x3c2d00f6	0.010559311
240	0xbcf91cde	-0.030409273
241	0xbb48f27a	-0.0030662105
242	0x3dcd0ab7	0.10011809
243	0x3bd1ddbd	0.006404607
244	0xbdacdee2	-0.08440949
245	0x3cbaa3b2	0.022783134
246	0xbd5f419a	-0.054505922
247	0x3cbeece6	0.023306321
248	0x3d8595d1	0.06522716
249	0x3d9cc94b	0.07655581
250	0xbbfcabf2	-0.007710927
251	0xbd1137ad	-0.035453487
252	0xbcc65fb4	-0.024215557
253	0x3d80a810	0.062820554
254	0xbd04f210	-0.03245741
255	0xbd1c1f13	-0.038115572

fc1.bias f4 [50]
0	0x3db9ae39	0.090664335
1	0xbcb7c473	-0.022432541
2	0x3e01d70c	0.1267969
3	0x3deda236	0.11603205
4	0x3d4b1e62	0.049589522
5	0xbc71602e	-0.014732404
6	0x3d6180c8	0.055054456
7	0x3deea523	0.11652591
8	0x3e23ff6b	0.16015403
9	0x3d99cec9	0.07510144
10	0x3cf44663	0.02981872
11	0x3b35b019	0.002772337
12	0x3e03b5c0	0.12862301
13	0x3dac1b54	0.0840365
14	0x3d3ac7ac	0.04560058
15	0x3d13ed1d	0.0361148
16	0x3d1f9cd2	0.038967915
17	0x3dd182fd	0.10230062
18	0x3d8cb94b	0.06871279
19	0x3d45d5f9	0.048299763
20	0x3d973915	0.073839344
21	0x3e16f915	0.14743455
22	0xbd287dfe	-0.04113578
23	0x3e145b79	0.14488019
24	0x3de5cb7c	0.11220452
25	0x3d6f5565	0.058431048
26	0x3de2fe27	0.11083632
27	0x3d5e1358	0.054217666
28	0x3c95e193	0.018296039
29	0x3d3bb432	0.045826145
30	0x3b8274f3	0.0039812266
31	0x3d3bac10	0.04581839
32	0x3e0ab05e	0.13543841
33	0x3d97a63f	0.07404756
34	0x3b92d239	0.004480627
35	0x3d9a13d1	0.07523311
36	0x3c90b69a	0.017665196
37	0x3d3d6fb7	0.046249118
38	0x3d7040f5	0.058655698
39	0x3d9d9574	0.076945215
40	0x3cc8901f	0.024482785
41	0x3de28bf7	0.110618524
42	0x3cdd9b22	0.027051512
43	0x3d414b3c	0.04719089
44	0x3d947914	0.07249656
45	0x3ccad651	0.024760397
46	0x3ce26aab	0.027638754
47	0x3bd5fe2a	0.006530543
48	0x3aa88ecc	0.001285994
49	0x3debbd46	0.115107104

fc2.weight f4 [43, 50]
0	0xbe4a1b66	-0.19737014
1	0xbe369641	-0.17830755
2	0x3e4e000e	0.20117208
3	0xbc99d9c5	-0.018780598
4	0xbcd67bb1	-0.026182028
5	0xbdcaf8ec	-0.09910759
6	0x3d6870ab	0.056748074
7	0x3e11f173	0.14252262
8	0xbe3206c1	-0.17385389
9	0x3dbd089b	0.09230157
10	0xbe259dc3	-0.16173463
11	0xbd9c7a32	-0.076404944
12	0xbd9d6ac7	-0.07686382
13	0x3e4ff273	0.20307331
14	0x3e4e396e	0.20139095
15	0x3d4f9e6c	0.050688192
16	0xbd4bab92	-0.04972417
17	0xbde0243f	-0.109444134
18	0xbcb1e6e1	-0.021716537
19	0x3e35dcb7	0.17759977
20	0xbe1d78bb	-0.15378086
21	0x3e034d38	0.12822425
22	0x3dac9a85	0.0842791
23	0xbd1eb4fd	-0.038746823
24	0xbe5981dd	-0.21240945
25	0x3e39aac1	0.18131544
26	0x3e8645c4	0.26225102
27	0xbd5146dd	-0.05109297
28	0xbd9c770b	-0.07639893
29	0xbd2f27e5	-0.042762656
30	0xbdffa5f7	-0.12482827
31	0x3e0d9606	0.1382676
32	0x3d8d9576	0.06913273
33	0xbe512b09	-0.20426573
34	0xbe4b9de2	-0.19884446
35	0xbda48025	-0.08032254
36	0x3e2cd7ee	0.16879246
37	0xbde058e7	-0.10954457
38	0xbe0ec50d	-0.13942356
39	0x3e86d296	0.2633254
40	0x3cb705f3	0.022341704
41	0x3cb464f0	0.022020787
42	0xbe3b161b	-0.18270151
43	0xbdafa803	-0.085769676
44	0x3e691755	0.22762807
45	0x3db1ba42	0.08678104
46	0xbcdee7bc	-0.027210109
47	0x3ca5d252	0.02024189
48	0xbd5ed572	-0.054402776
49	0x3e6a4b20	0.2288022
50	0xbe402a5e	-0.18766162
51	0xbe355266	-0.17707214
52	0x3e5c484c	0.21511954
53	0x3e5138c9	0.20431818
54	0xbe016f48	-0.12640107
55	0xbe02df85	-0.12780578
56	0xbd590e01	-0.05299187
57	0x3e74b41d	0.23896833
58	0xbe1079a2	-0.14108899
59	0x3e2c3fd0	0.16821218
60	0x3cd6ab85	0.026204834
61	0xbe77effc	-0.2421264
62	0x3e1a8357	0.15089165
63	0x3e6cafa8	0.23113883
64	0x3e564374	0.20924169
65	0xbcdc0573	-0.026858067
66	0xbdddce11	-0.1083032
67	0xbda40784	-0.08009246
68	0x3dedc5f6	0.11610024
69	0x3e042632	0.12905195
70	0x3e0b4903	0.1360207
71	0x3e5e3c31	0.21702649
72	0xbe174e74	-0.14776021
73	0xbe61308b	-0.21991174
74	0xbe91924a	-0.28431922
75	0x3d1a56de	0.0376805
76	0x3e5b6ca0	0.21428156
77	0xbe06fcca	-0.13182369
78	0xbda5b988	-0.08092028
79	0xbe5e4fa5	-0.2171007
80	0xbe507e26	-0.20360622
81	0x3e6ea48a	0.23304954
82	0xbe04f973	-0.12985782
83	0xbe7e14c1	-0.24812604
84	0xbd37695f	-0.044778224
85	0x3e13c876	0.14431939
86	0x3e2a0ebb	0.16607182
87	0x3dc3ac3b	0.09554335
88	0xbe1b3882	-0.15158275
89	0x3e798f6b	0.24371116
90	0xbc259d36	-0.010108283
91	0x3c6de08c	0.014518868
92	0xbe15344c	-0.14570731
93	0x3b41f05c	0.0029592728
94	0x3e5ff6c6	0.2187148
95	0x3d7c665e	0.061621062
96	0x3e051e4c	0.12999839
97	0xbdd3a77d	-0.1033468
98	0xbdfc0042	-0.12304737
99	0x3e750a84	0.23929793
100	0xbd143fd2	-0.036193676
101	0x3de86dfb	0.11349102
102	0x3e37637b	0.17909043
103	0x3e752573	0.23940067
104	0xbdd0dce6	-0.10198383
105	0xbcfb9680	-0.030711412
106	0xbe2d6653	-0.16933565
107	0x3e71576e	0.23568508
108	0x3e762184	0.24036223
109	0x3e586a92	0.21134403
110	0x3d810b8c	0.063010305
111	0xbe8e68f0	-0.27814436
112	0x3e6184f1	0.2202337
113	0xbe3ad925	-0.18246897
114	0x3e27e4b9	0.16395845
115	0xbe062428	-0.1309973
116	0xbe3177bd	-0.17330833
117	0xbe6038b7	-0.21896635
118	0xbdbd5640	-0.092449665
119	0xbe3a89d3	-0.18216638
120	0x3e2d3390	0.16914201
121	0x3e63ad14	0.22233993
122	0xbd748ede	-0.05970656
123	0xbe13955c	-0.14412445
124	0x3daabde5	0.08337001
125	0xbeac4b70	-0.33651304
126	0xbe60acc7	-0.2194091
127	0xbdbc7423	-0.09201839
128	0xbe058a7e	-0.13041112
129	0xbe025538	-0.12727821
130	0xbe2068ef	-0.15665029
131	0x3e24d77f	0.1609783
132	0xbdc4816b	-0.09594997
133	0xbe570dd3	-0.21001367
134	0xbddbfc67	-0.10741501
135	0x3e1b67a9	0.15176262
136	0x3e01a622	0.12661031
137	0x3e339b9b	0.17539828
138	0xbe3f7852	-0.18698242
139	0x3e79e4ad	0.24403639
140	0xbcc03ce1	-0.02346653
141	0xbd587ebf	-0.05285525
142	0xbe158c33	-0.14604263
143	0x3e2a05f5	0.16603835
144	0x3e7e9cd8	0.24864519
145	0xbd5c62e8	-0.05380526
146	0xbda140c1	-0.07873679
147	0xbdfafcc5	-0.12255243
148	0x3da43f52	0.0801989
149	0x3e5e725b	0.2172331
150	0x3e942b41	0.2893925
151	0x3db8e19c	0.090274066
152	0x3dc26365	0.09491614
153	0x3e14dba1	0.14536907
154	0x3e4b341c	0.19844097
155	0xbdb9121b	-0.090366565
156	0xbe37cb90	-0.17948747
157	0x3e4a3dd2	0.19750145
158	0x3e892983	0.26789483
159	0x3e660bdf	0.22465466
160	0xbe0dc99a	-0.13846436
161	0x3db557e2	0.08854653
162	0x3e6bfed4	0.23046428
163	0xbc426f2e	-0.011867328
164	0xbe682c1a	-0.22673073
165	0xbd9187f3	-0.071060084
166	0xbe7d5524	-0.2473951
167	0x3e26b697	0.1628059
168	0xbdf74b36	-0.12074892
169	0xbe346795	-0.17617638
170	0x3e3575b8	0.17720687
171	0x3e2d0f8c	0.16900462
172	0xbc8d6ce7	-0.017263843
173	0xbe6b27fd	-0.22964473
174	0x3dea186c	0.11430439
175	0xbcbca511	-0.023027929
176	0xbdb52c03	-0.08846285
177	0xbd1e1899	-0.038597677
178	0xbdab3a96	-0.08360784
179	0x3e215b10	0.15757394
180	0xbdbafc40	-0.09130144
181	0xbe46a903	-0.1940041
182	0x3e512780	0.20425224
183	0x3e0bb88e	0.13644621
184	0xbe69968c	-0.22811335
185	0xbe5cc5b5	-0.21559794
186	0x3e288f0e	0.16460821
187	0x3e3b3510	0.1828196
188	0xbe1189a0	-0.14212656
189	0x3e432fa1	0.19061138
190	0x3c5c462e	0.0134444665
191	0xbd9669f2	-0.07344426
192	0xbe010e6e	-0.1260316
193	0xbe26e72a	-0.1629912
194	0x3e68737b	0.22700302
195	0xbe809d52	-0.25120026
196	0xbde845f0	-0.113414645
197	0x3ce533ac	0.02797874
198	0xbe4adf81	-0.19811822
199	0x3e43938c	0.19099253
200	0xbe0cc6d5	-0.13747723
201	0xbe37ace3	-0.17937045
202	0x3e366a0c	0.17813891
203	0x3e385b08	0.18003476
204	0xbe1b264c	-0.15151328
205	0x3de93673	0.113873385
206	0xbdcaf222	-0.099094644
207	0x3dd14e86	0.10220055
208	0xbe0d9cab	-0.13829295
209	0x3e4df57b	0.20113175
210	0x3e0e6c52	0.13908508
211	0xbe7921c1	-0.24329282
212	0xbe88c2f8	-0.2671125
213	0x3e18ff87	0.14941226
214	0x3e4d3c3a	0.20042506
215	0x3df6cfdb	0.12051364
216	0xbde947ac	-0.113906235
217	0xbe84643d	-0.25857726
218	0x3e5a7425	0.21333368
219	0x3df0c25d	0.11755822
220	0xbe8180cc	-0.25293577
221	0x3e46306a	0.19354406
222	0xbe236276	-0.15955529
223	0x3dab8d66	0.08376579
224	0xbe92788b	-0.28607592
225	0x3da7ae05	0.081874885
226	0x3e1d27df	0.15347241
227	0x3deba32e	0.115057334
228	0xbe223768	-0.15841448
229	0xbe0b23ac	-0.13587826
230	0x3ddb9334	0.10721436
231	0x3e426daa	0.18987146
232	0xbe0964a4	-0.13417298
233	0xbe738931	-0.23782803
234	0xbe871311	-0.26381734
235	0xbcc554c9	-0.02408828
236	0x3e3f26b3	0.18667106
237	0xbec6c041	-0.38818553
238	0xbe69b367	-0.22822343
239	0x3e7f2360	0.24915838
240	0x3e14fb8d	0.14549084
241	0x3e890d5d	0.26768008
242	0xbe17675f	-0.14785527
243	0x3e273572	0.16328982
244	0x3e7650e1	0.2405429
245	0xbe0db904	-0.13840109
246	0xbda8718f	-0.082247846
247	0xbe31aabb	-0.17350285
248	0x3dac7104	0.084199935
249	0x3e8268cc	0.2547058
250	0x3e8cab13	0.2747427
251	0x3def4f72	0.11685075
252	0x3e5153a9	0.2044207
253	0x3e3137a6	0.17306384
254	0xbe063f91	-0.13110186
255	0x3d9330d6	0.07187049

fc2.bias f4 [43]
0	0xbe85980d	-0.26092568
1	0x3e21aca7	0.15788518
2	0x3c599d1c	0.013282087
3	0x3e6a33ed	0.2287137
4	0x3e039beb	0.12852447
5	0x3e6ea3bf	0.23304652
6	0x3d804e86	0.06264977
7	0x3d024f46	0.031813882
8	0x3e57798b	0.21042459
9	0x3b9df116	0.0048199994
10	0x3cdf8d8b	0.027289173
11	0x3ddf93dd	0.109168746
12	0x3e13cdc6	0.14433965
13	0xbd17887b	-0.036995392
14	0xbc938015	-0.01800541
15	0xbe7f68e4	-0.24942356
16	0xbe1e1110	-0.15436196
17	0xbd691e2d	-0.056913543
18	0x3d702676	0.05863043
19	0xbd766890	-0.060158312
20	0xbce6f254	-0.028191723
21	0xbdd8b42a	-0.105812386
22	0x3d1f4ca6	0.038891457
23	0x3de86a47	0.11348396
24	0xbdfd125f	-0.1235702
25	0x3e6c062f	0.23049234
26	0xbd3f5bb4	-0.046718314
27	0xbdc7af4a	-0.097502306
28	0x3e265d5a	0.16246548
29	0xbd4bd354	-0.049762085
30	0x3d8801f6	0.06640999
31	0x3e192c5a	0.14958325
32	0xbdbae45b	-0.091255866
33	0x3ddddf63	0.10833623
34	0xbe1bdaca	-0.1522018
35	0xbd3aa508	-0.045567542
36	0xbe021736	-0.12704167
37	0xbe365556	-0.1780599
38	0x3eaa1afe	0.33223718
39	0xbe592df8	-0.21208942
40	0xbc82a8a1	-0.01594955
41	0xbe58ee07	-0.2118455
42	0xbdd949b8	-0.10609764
